dev/saves/best_avg_actor.pth (torch_old, 585854 bytes, 6 tensors)

l1.weight f4 [400, 57]
000000 80 fa 81 ba 98 84 91 3d 40 43 df bd 49 a2 c7 bd
       -0.0009916574 0.071053684 -0.10901499 -0.0974775
000010 0a f5 50 bd a4 7b 11 3d c0 fc 2b bb 22 15 d7 3d
       -0.051014937 0.035518304 -0.002624318 0.10502078
000020 b0 95 40 bc 50 8f 0f 3d 8e f5 23 bd dc 48 d5 bc
       -0.011754438 0.035048783 -0.0400291 -0.026035719
000030 70 93 01 be 48 a7 b3 bd 8c a4 5f bd 00 c7 a0 3b
       -0.12653899 -0.08772141 -0.054600284 0.004906535
000040 08 7b 56 3d c4 c3 a2 3d b2 e6 b7 bd 40 40 6c bd
       0.052363425 0.079474956 -0.089795485 -0.05767846
000050 3c 0e 45 3d 2a 41 e1 3d 0c 4e df bc 7e fd ca 3d
       0.048109278 0.10998757 -0.027258895 0.09911631
000060 a4 e4 ae bc f0 a0 65 3c 90 9f f5 3d cf a4 fb bd
       -0.021349259 0.014015421 0.11993325 -0.12287294
000070 68 c5 aa bd 6e 59 09 bd 42 7a 53 bd 5c 5f ea 3d
       -0.083384335 -0.033532552 -0.051630266 0.114439696
000080 f4 d3 af bd 62 be 79 bd 23 84 bd bd 34 0e fe bd
       -0.08585349 -0.06097258 -0.09253719 -0.12405053
000090 10 59 9e bd 9e 2d e9 3d 10 16 72 3d 6e 79 83 3d
       -0.07731831 0.11385654 0.05910307 0.06419645
0000a0 60 42 e4 3b 9c 12 8b bd 30 93 b7 3c 29 47 fd bd
       0.0069659203 -0.06790659 0.022409052 -0.12367088
0000b0 a2 01 c4 bd 48 d8 8b bd a0 26 ab 3d 48 0c 9f 3d
       -0.09570624 -0.06828362 0.083569765 0.07766014
0000c0 d2 9b 70 bd 20 9b 9c bb 6c 7d ad 3d 1c d6 06 3e
       -0.05874235 -0.0047792345 0.08471188 0.13167614
0000d0 e4 51 57 3d 58 95 92 3c 04 e1 b5 3d 94 b8 9f bd
       0.05256833 0.017893478 0.08880809 -0.07798877
0000e0 a0 31 ca 3c 0a 50 d2 bd 6d 02 bc bd 71 21 8c bd
       0.024681866 -0.102691725 -0.0918015 -0.06842316
0000f0 c0 7a 75 3d f8 2e 5a 3d 1e af a0 bd d4 e6 23 3d
       0.059931517 0.05326745 -0.07845901 0.040015057
000100 9e ea 94 3d f8 f3 88 bc 80 b7 a5 3b b0 69 fb 3c
       0.07271312 -0.016717896 0.0050572753 0.030690044
000110 36 49 a8 3d b0 3b 02 3e e8 0a d1 bd fc d1 46 bd
       0.08217089 0.12718081 -0.10207158 -0.0485401
000120 14 38 55 3d 7c c1 e0 3d 5e 0e ec 3d 10 5a ef 3d
       0.052055433 0.10974404 0.11526178 0.116871
000130 30 f1 d7 3c fc e2 eb bd 60 a2 47 3c 50 b4 a9 bd
       0.026360124 -0.11517903 0.012184709 -0.08286345
000140 4a ce fc bd 28 04 f1 3d 26 42 ce 3d fd 4b 07 be
       -0.12344034 0.11768371 0.100712106 -0.13212581
000150 a0 17 cb 3c e8 c9 b6 bc e8 8e b2 bc 9c 58 78 bd
       0.024791539 -0.022313073 -0.021796659 -0.06063138
000160 f8 a1 50 3d b6 ab a0 bd e0 e2 46 3d 36 2e 89 3d
       0.050935715 -0.07845251 0.04855621 0.06698267
000170 ba 30 c2 3d 80 db 4a 3d 69 3d 06 be e0 f7 af bd
       0.0948195 0.049525738 -0.13109364 -0.085922
000180 40 72 87 3d 98 1a e3 3c e0 9b d3 bd 00 33 9c bd
       0.06613588 0.027722642 -0.10332465 -0.07626915
000190 10 31 ff 3d 5e c8 b6 3d 58 8e 6c bd d0 8b 08 bd
       0.1246053 0.08924936 -0.057752937 -0.03333646
0001a0 f1 33 01 be 00 06 1c bb 27 47 cc bd d1 3d d1 bd
       -0.1261747 -0.0023807287 -0.09974509 -0.10216869
0001b0 20 25 ef bb 78 ea a2 3c 8c 2e 5e bd 4c f6 a0 3d
       -0.007298127 0.019887194 -0.05424361 0.078594774
0001c0 2c 13 a5 bd 14 23 f6 3d b8 e5 b9 3d a3 c0 e4 bd
       -0.08060297 0.12018409 0.090770185 -0.11169555
0001d0 de 06 07 bd a0 d7 c3 3b a0 4f 9e 3c 7c ac 00 3d
       -0.032965533 0.0059766322 0.019325078 0.031414494
0001e0 4c e7 54 3d 80 fd 01 3c 8c 5b 84 bd f8 5b 80 3d
       0.051978394 0.007933974 -0.06462774 0.06267542
0001f0 de 1a 02 be b6 c7 a0 bd a2 cf 07 bd ed 22 84 bd
       -0.12705562 -0.07850592 -0.033157 -0.06451974
000200 68 cb 3d bd 84 55 de bd dc ce e6 bc 18 f0 e7 3c
       -0.04633656 -0.108561546 -0.02817481 0.028312728
000210 28 b8 b0 bd e0 bc de bb 4a 2f c2 3d 98 16 5f bc
       -0.08628875 -0.006797418 0.09481676 -0.013616227
000220 c0 3f 71 3b a0 36 3b bc 68 98 db 3c 02 7b ac 3d
       0.003681168 -0.011426598 0.026806071 0.084218994
000230 1c 7a 00 3e 98 44 ac 3d 5e c5 00 3e 38 f2 1c bc
       0.12546581 0.08411521 0.1257529 -0.009579234
000240 b7 ae f3 bd a6 99 80 bd 8a b4 b8 3d 00 15 61 ba
       -0.118985586 -0.06279306 0.0901881 -0.0008586198
000250 b5 d4 86 bd 7a df cf bd f9 dc fd bd 01 f3 e4 bd
       -0.065835394 -0.10150047 -0.12395663 -0.11179162
000260 e4 16 dc bc 50 c3 94 3d 16 a8 92 3d d5 ce 02 be
       -0.026866384 0.072638154 0.07160966 -0.12774213
000270 b2 35 a9 3d 4e 44 d4 bd 68 64 e5 bc fe fa 5b bd
       0.08262195 -0.103645906 -0.028001979 -0.05370616
000280 a0 ff d0 bc 04 0b d5 bc 3f 6b f3 bd 45 38 ea bd
       -0.025512516 -0.02600623 -0.1188569 -0.11436514
000290 04 ca a9 bc 80 83 e0 3a 02 75 76 bd bc 5e 4c 3d
       -0.020726211 0.0017129034 -0.06017018 0.049895033
0002a0 55 27 f4 bd 78 74 12 bc 16 8e ee 3d 02 4b 5d bd
       -0.119215645 -0.008938901 0.116481945 -0.05402661
0002b0 d4 f3 f4 3d 8c 7a 44 3d 2c ce f4 bd ce a0 ab 3d
       0.11960569 0.047968432 -0.11953387 0.083802804
0002c0 50 6b 7a bc 3c 30 72 bd d6 ea d8 3d 13 35 db bd
       -0.015284374 -0.05912803 0.105916664 -0.107034825
0002d0 30 dd 68 3c 4c 2d e3 bc 94 b6 c1 3d a0 71 17 3d
       0.014212891 -0.02773156 0.09458652 0.036973596
0002e0 0a 58 82 3d 48 99 3f 3d e0 76 02 bd 80 31 e4 bc
       0.06364448 0.04677704 -0.03185165 -0.027855635
0002f0 37 8b df bd a2 fb 92 3d ba 60 d7 3d 10 9b b9 3d
       -0.10915225 0.071769014 0.10516496 0.09062779
000300 0a 58 bf bd e0 92 c1 3b 31 39 bf bd a0 53 95 bd
       -0.09342964 0.0059074014 -0.0933708 -0.07291341
000310 31 11 9e bd 08 68 39 3d 62 a6 a1 bd 00 62 3d bb
       -0.07718123 0.045265228 -0.07893063 -0.0028897524
000320 e0 95 b6 3b f8 dc ae 3d d7 0d cd bd e8 39 ba bd
       0.0055720657 0.0853824 -0.10012405 -0.09093076
000330 40 83 9d bd ec dd bd 3d 1e 05 43 bd ec ce e4 3d
       -0.076910496 0.09270844 -0.047612302 0.1117228
000340 b0 2e 44 3d 80 65 89 3c 00 3c 81 ba e8 7e d6 bc
       0.047896087 0.016772032 -0.00098598 -0.02618356
000350 60 23 88 3c 58 c4 f7 bc 00 f8 73 ba 18 72 8a 3c
       0.01661843 -0.030244991 -0.0009306669 0.016900107
000360 2c 2f d4 bd 98 2d 8e bd 3c 0b db 3d c2 24 dc bd
       -0.1036056 -0.0694229 0.10695502 -0.107491985
000370 e0 d3 1b bc 2c 2c 06 3e 3c fb 43 3d 40 c5 75 3b
       -0.009510964 0.13102788 0.047847018 0.0037501603
000380 8c 14 eb bd d8 60 86 3d 5e 37 c1 bd 22 01 1a bd
       -0.114785284 0.0656144 -0.094343886 -0.037598737
000390 f4 06 36 bd e8 ae a0 bc 00 e6 bd 3a a4 bd df 3d
       -0.044440225 -0.019614652 0.0014488101 0.10924843
0003a0 10 75 87 3c 2c f8 f2 3d 8a ef a5 3d 3d 7f ab bd
       0.016535312 0.11863741 0.08102329 -0.08373878
0003b0 84 53 73 3d 70 c1 bf bd ec ef 65 bd e8 91 1f 3d
       0.05940582 -0.09363067 -0.05613701 0.038957506
0003c0 7c 23 33 3d 92 82 cb 3d 04 a6 2e bd 00 58 5e 39
       0.043735012 0.09937014 -0.042638794 0.00021204352
0003d0 38 a7 8b 3d 33 2b 03 be 68 1e c4 3d 81 50 e0 bd
       0.06819004 -0.12809448 0.09576112 -0.10952855
0003e0 00 47 ef 3a 54 7a b8 bc 16 de 8e bd c0 69 8f 3c
       0.0018255413 -0.022519268 -0.06975953 0.01750648
0003f0 40 50 e0 3d 78 97 1e bd 48 0c a1 bd e8 a5 48 bd
       0.109528065 -0.03871867 -0.078636706 -0.048986346

l1.bias f4 [400]
000000 32 a4 d7 3d cc 7f b6 bc 14 e6 13 3d b0 9d 94 3c
       0.10529365 -0.022277735 0.03610809 0.018141598
000010 f4 1e f1 3d 00 41 97 bd c7 39 d0 bd 18 cb 29 3d
       0.11773482 -0.07385445 -0.1016727 0.04145345
000020 0e c6 ad 3d d8 0c 6a 3d f8 ce 64 3d ee 75 bf bd
       0.084850416 0.057141155 0.055861443 -0.09348665
000030 bc ea 71 3d d0 06 23 bc 58 9b cc bd d9 21 9e bd
       0.05906175 -0.009950355 -0.09990567 -0.077213
000040 1c f0 7f 3d 92 35 b0 bd 22 fa 09 bd be 5e c8 3d
       0.062484846 -0.08603968 -0.03368581 0.09783696
000050 d4 73 2b 3d ee 50 96 3d 24 f1 1d bd a1 55 06 be
       0.04185851 0.07339655 -0.038560048 -0.13118602
000060 00 43 24 3c 94 12 b2 3d 12 df a9 bd 5e 6e dd bd
       0.01002574 0.0869495 -0.082945004 -0.108120665
000070 0c 90 54 bd 68 3f 60 bc 3a ae ea 3d c8 02 04 3d
       -0.051895186 -0.013686992 0.11459012 0.032229215
000080 ea dc aa 3d e0 d5 ca bb 4e 7c 8e bd 5a cd 06 3e
       0.08342917 -0.0061900467 -0.06957303 0.13164273
000090 c0 01 e1 3c 72 6a db bd ec 4e 9b 3d 9c f0 35 3d
       0.027466655 -0.10713662 0.075834125 0.044418916
0000a0 ad 9a 90 bd 30 c0 2c 3c f7 51 05 be 36 49 e6 bd
       -0.07060752 0.010543868 -0.13019548 -0.11244433
0000b0 60 16 8f bc b2 6d 07 3e ba ad 23 bd c0 77 07 3d
       -0.017466724 0.13225439 -0.0399606 0.033073187
0000c0 38 51 fe bd e2 88 a6 3d 1c 65 15 bd a8 41 5c 3d
       -0.12417835 0.08131577 -0.03647338 0.053773552
0000d0 a6 58 02 3e 00 f2 d4 b9 80 1b 92 3c 5e 67 c1 bd
       0.12729129 -0.00040616095 0.017835379 -0.09443544
0000e0 b2 38 9e bd 60 9a d4 bd c6 da 7e bd 40 ee 56 3b
       -0.077256575 -0.10381007 -0.062220357 0.0032795817
0000f0 a8 7f 20 bc ec c3 6a 3d 37 0d b9 bd 0e 76 ea 3d
       -0.009796061 0.057315752 -0.09035724 0.114482984
000100 38 6d f9 bd d0 c6 5f 3d e4 fa f4 bc 40 16 11 3c
       -0.12179035 0.05463296 -0.02990479 0.0088554025
000110 1e 6d de bd 40 c2 59 3c 5a fb d0 bd d3 30 e6 bd
       -0.10860656 0.013290942 -0.102041915 -0.11239781
000120 56 ee 24 bd 42 15 b7 bd 58 84 3d bd b2 d1 d8 3d
       -0.040266357 -0.089396015 -0.04626879 0.10586871
000130 70 7b c5 3c 60 a9 21 3d e0 e7 4c 3d 90 7d f9 3c
       0.024106711 0.03946817 0.05002582 0.03045538
000140 7c 79 63 3d 5e 3b c7 3d 10 46 65 3c 22 54 a5 3d
       0.05553578 0.0972812 0.013993755 0.08072688
000150 3c 14 74 3d ac 1f 98 bc e2 90 59 bd 24 99 06 3e
       0.05958961 -0.01856979 -0.053116687 0.13144356
000160 99 bd 94 bd dc ff 38 3d 2c a3 18 3d 30 aa e4 bd
       -0.072627254 0.04516588 0.037264988 -0.11165273
000170 2a 9b 80 bd 40 dc 67 3d cc a6 90 bd 9c ba 85 bd
       -0.06279595 0.05660653 -0.07063064 -0.065297335
000180 70 91 a1 3d ba e3 bc bd 0a 8a 96 bd f2 b1 99 3d
       0.07889068 -0.09223123 -0.073505476 0.075046435
000190 f8 af a1 3d 10 db 3c 3d ca 04 71 bd f0 39 3d 3d
       0.078948915 0.04610735 -0.058842458 0.04619783
0001a0 60 b1 42 3c 44 de 00 be 94 1c 80 bd 04 83 63 3d
       0.01188311 -0.12584788 -0.06255451 0.055544868
0001b0 c8 06 f3 bc 46 d3 48 bd 60 1e ef bb dc 9b 3c 3d
       -0.02966632 -0.04902961 -0.007297322 0.046047077
0001c0 30 12 0a 3d fe a6 65 bd 08 5a ff bd 74 4d 36 bd
       0.03370875 -0.05606746 -0.12468344 -0.04450746
0001d0 cd 3b ef bd 68 ae 83 bd b2 a6 c9 3d 50 17 76 3d
       -0.11681328 -0.0642975 0.09846248 0.060080826
0001e0 e8 6c 17 bd 14 cd 27 3d 3c ec a7 bc 70 d4 70 3c
       -0.036969095 0.040967062 -0.020498388 0.014699087
0001f0 98 bf 48 3d 32 64 01 be 08 8c 8b 3d a8 aa 86 bc
       0.049010843 -0.12635878 0.06813818 -0.016438797
000200 1e c2 e6 3d 73 dc 8d bd 48 65 b1 bd cb 60 89 bd
       0.11267494 -0.06926813 -0.08661896 -0.06707915
000210 b0 de 9d 3c 28 8e 9c 3d b8 87 a8 3d 70 7e 93 bd
       0.019271225 0.07644302 0.08229011 -0.072018504
000220 50 20 da 3d 00 b2 f3 bb ec 87 a4 3d 70 aa 6e bc
       0.10650694 -0.0074369907 0.080337375 -0.014567003
000230 d0 d1 6c bd 8a 6f 56 bd 78 7e 3a bd 40 62 14 3b
       -0.05781728 -0.052352466 -0.045530766 0.002264157
000240 af 24 aa bd 9a e9 e8 3d b6 f6 de bd e6 b3 87 3d
       -0.08307778 0.11372681 -0.108869 0.0662611
000250 8a 73 1b bd e8 c1 92 bd 80 8c 97 3b 7c 95 d7 bc
       -0.037951984 -0.07165891 0.004624903 -0.026316397
000260 70 41 01 be 20 73 8d bb fe 1f d0 3d 9e 8c c7 3d
       -0.12622619 -0.0043167025 0.10162352 0.097436175
000270 40 48 bd bb d2 91 cc 3d 48 2e f6 3c 12 c2 ac 3d
       -0.005776435 0.099887505 0.030051365 0.084354535
000280 52 24 aa 3d 4a ad 93 3d f4 6e 9d 3d bb 25 e8 bd
       0.08307709 0.07210787 0.07687178 -0.113353215
000290 a0 b6 03 3d 94 a5 bc bc a8 c8 10 3d 69 40 86 bd
       0.032156587 -0.023028173 0.03534761 -0.06555254
0002a0 04 98 06 3e c4 49 20 bd 24 b5 6e 3d 8c 8e e8 3d
       0.13143927 -0.03913285 0.058278218 0.11355314
0002b0 2a 76 e3 bd 9c f8 4b bd e9 9b d9 bd 76 ef ec 3d
       -0.111065224 -0.04979764 -0.106254406 0.11569111
0002c0 ae c0 a2 bd dc 7c c9 3d 50 37 ff bc 18 90 01 be
       -0.07946907 0.09838268 -0.031154305 -0.12652624
0002d0 00 43 95 bd 1c b9 99 bc 5e 94 f0 3d fe 3b ff bd
       -0.0728817 -0.018765025 0.11747049 -0.124626145
0002e0 13 6a 8e bd 80 66 bf 3d 42 29 46 bd a2 f4 6d bd
       -0.06953826 0.09345722 -0.04837919 -0.05809463
0002f0 3c db 31 3d e3 a6 8e bd db 7c 9a bd d8 a3 f2 3d
       0.04342197 -0.06965425 -0.075433455 0.11847657
000300 20 2b 16 bd 74 ff da bc d2 a8 ec bd a0 ce b7 3c
       -0.03666222 -0.026733138 -0.115556374 0.022437394
000310 84 09 da bc 6a bb 92 3d 80 f9 8b 3c 18 43 ba 3d
       -0.026615866 0.07164653 0.017086744 0.09094828
000320 5c a8 da 3d 6a 2c c6 bd 74 f2 86 bc 62 3c 8f 3d
       0.10676643 -0.0967644 -0.016473033 0.06993939
000330 4e 74 e0 3d bc 44 c3 3d 1c 93 02 3e 6b 7c 02 be
       0.10959683 0.095345944 0.1275143 -0.12742774
000340 4a 2a 43 bd ac c9 91 bc be db d1 3d 46 26 e9 3d
       -0.047647752 -0.01779636 0.102469906 0.11384253
000350 ff 4a 04 be 28 ba e8 bc 03 ad 90 bd 98 f3 b7 bd
       -0.12919234 -0.028409079 -0.07064249 -0.08982009
000360 bc ef b7 bd 0f e4 e6 bd d0 f4 c9 3d 80 b3 a1 bb
       -0.089812726 -0.112739675 0.098611474 -0.004934728
000370 12 4c ba 3d 8d 8a c8 bd fc e2 ac 3d c0 d2 c9 bb
       0.090965405 -0.097920515 0.08441731 -0.0061591566
000380 a2 1b c9 3d e0 b7 76 3d 68 ef 3a bc 7c 65 9d 3d
       0.09819724 0.06023395 -0.011409618 0.07685372
000390 ea 52 32 bd f8 46 ab 3c 18 00 9a 3c c0 91 1c 3b
       -0.043536104 0.020907864 0.018798873 0.0023890585
0003a0 30 7d 53 bc d8 37 df 3d 18 72 8d 3c b2 cb b5 bd
       -0.012908265 0.10899323 0.017266318 -0.088767424
0003b0 da dd 9a 3d ae b8 b4 bd 06 7b b6 3d b0 d4 fa 3d
       0.07561846 -0.08824287 0.089101836 0.12247598
0003c0 0e 73 44 bd 58 66 d8 3c 24 91 6c 3d 98 0a 20 3d
       -0.047961287 0.026415989 0.057755604 0.039072603
0003d0 f8 3b de bd dc 34 f0 3d 67 32 9f bd a8 a9 31 3d
       -0.10851282 0.11728832 -0.07773285 0.043374687
0003e0 f2 07 14 bd b8 d4 c3 bd ec 13 29 3d 6e 54 29 bd
       -0.03614039 -0.09562057 0.041278765 -0.041340284
0003f0 7c 8d 7d 3d 98 a4 c4 3c fe 2b 55 bd 48 d9 a1 3c
       0.06190251 0.024004266 -0.052043907 0.019756928

l2.weight f4 [300, 400]
000000 3a 58 14 bd 96 9f 8e 3c b8 5c 4a bc 2b 62 1d bd
       -0.036216952 0.01741008 -0.012351207 -0.0384237
000010 40 52 c2 ba c0 82 52 3a 1a dc 9b 3c d2 cf f2 3c
       -0.0014825538 0.00080303475 0.019025851 0.029640112
000020 53 f1 21 bd cc 81 99 bc 39 9b 44 3d 5e 68 27 bd
       -0.039536785 -0.01873865 0.047999594 -0.040871017
000030 45 5f 3e 3d 7b 15 33 bd 99 be 08 3d e8 65 b9 3b
       0.046477575 -0.043721657 0.033384893 0.0056579
000040 cd 93 a3 bc f8 3e 46 bc 66 89 8d 3c 80 7b 27 bb
       -0.019967938 -0.012099974 0.01727743 -0.002555579
000050 ae 15 b3 3c f1 c2 40 3d ca 5d 19 bd c8 44 32 bc
       0.021860924 0.04706091 -0.03744296 -0.010880657
000060 0a 08 0c bd d3 72 c6 bc 2c e1 2e 3c 00 ad de bb
       -0.034187354 -0.024224674 0.010673802 -0.0067955256
000070 40 e4 e0 3a ca 6e 85 bc c0 5c 94 bb 02 52 c5 3c
       0.0017157868 -0.01628818 -0.004527658 0.024086956
000080 40 ec 35 3c 6a 1a ba 3c 3d 93 ee bc f4 fd 62 3c
       0.01110369 0.022717673 -0.029122943 0.013854492
000090 4a f6 06 bd d4 b7 11 3c 70 9d 84 bc ea b2 9c bc
       -0.032949723 0.008893926 -0.016188353 -0.019128282
0000a0 10 30 a2 bb ce 39 ac 3c d9 8c 4b 3d 60 c8 b3 bc
       -0.004949577 0.021023657 0.04969487 -0.021946132
0000b0 f0 6c 46 bd ad 6e ac bc 06 8a a0 3c d1 3d 06 3d
       -0.048443735 -0.021048868 0.019597065 0.032773796
0000c0 a1 71 09 3d 98 ae d1 bb 70 89 dc 3b 11 93 2d 3d
       0.03355563 -0.006398987 0.006730251 0.04237658
0000d0 1a 39 f0 bc 94 6f 79 3c cd 0b d1 bc 18 2d ce bb
       -0.029324103 0.015224356 -0.025518322 -0.0062919967
0000e0 30 31 0d bb 08 f5 02 3c 91 0b 06 3d 23 f9 ac bc
       -0.002154421 0.00799299 0.032725874 -0.021114891
0000f0 70 f1 ee bb 70 96 98 bc e8 d4 ec bb 29 43 1c 3d
       -0.007291965 -0.018626422 -0.007227529 0.038149986
000100 d5 81 4a 3d 4c a6 3d 3c 2c 04 85 bc de a6 c5 3c
       0.049440224 0.011575293 -0.01623734 0.02412742
000110 63 01 f9 bc e8 c8 00 bd 1d d1 01 3d 0c 07 4d bc
       -0.030396169 -0.0314416 0.031693567 -0.012513887
000120 80 58 4c bd 3e 1d 05 bd 23 6c da bc d1 21 49 3d
       -0.049889088 -0.03249859 -0.026662892 0.049104515
000130 d4 da 13 3c 3a 96 a0 bc cc 4d 4c 3c 76 ce b4 3c
       0.009024341 -0.019602884 0.01246972 0.022071104
000140 8c ca 04 3c d0 37 d2 3b c0 fd 69 bc 35 8d 3b 3d
       0.008104932 0.006415345 -0.01428169 0.045788962
000150 2b b9 36 3d 90 ae 03 bd aa 54 9b 3c f5 ce 22 3d
       0.044610184 -0.032148898 0.01896127 0.03974815
000160 7a bb 2b bd ad dc a9 bc f8 75 16 bd 63 20 0e 3d
       -0.04192684 -0.02073511 -0.036733598 0.034698855
000170 09 87 4a 3d 34 38 41 bc 65 ac 17 bd 02 db eb 3c
       0.049445186 -0.011793185 -0.037029643 0.028790955
000180 40 f2 f0 3a 30 a4 28 3b 70 4f c8 bc 26 63 95 bc
       0.0018382743 0.002573263 -0.024451941 -0.018235754
000190 37 7c 14 3d 3e 0d 94 3c 00 f2 34 bc 40 b9 7d 3a
       0.036251273 0.01807272 -0.011044025 0.00096787885
0001a0 08 91 1e 3c 34 da 43 bc e7 a5 1d 3d d6 e8 e3 3c
       0.009678133 -0.011953879 0.038488295 0.027820986
0001b0 e2 90 23 bd 5a 7f c4 3c 46 b7 e3 3c 6d 1a 1d bd
       -0.039933093 0.023986507 0.027797353 -0.03835528
0001c0 80 75 a3 39 c0 ff 43 3c 18 23 c2 bb 00 e0 db 3b
       0.00031177327 0.011962831 -0.0059245937 0.0067100525
0001d0 a4 8e 59 3c 4b 2c 32 bd de cf 18 bd b2 dd 9e 3c
       0.013278637 -0.043499272 -0.037307613 0.019392822
0001e0 d2 fb df 3c 88 9d 14 bd ed 66 0d 3d cc 99 0b bc
       0.027341757 -0.036283046 0.034521986 -0.008520555
0001f0 83 b9 0a 3d aa 14 86 bc 32 ac 80 3c fd 2d 1b 3d
       0.033868324 -0.016367275 0.01570711 0.037885655
000200 7e ff d3 3c 02 ae 42 bd a0 37 45 bc aa 1d 2d bd
       0.025878664 -0.047529228 -0.012037188 -0.042264618
000210 48 8d 2c 3c 80 c2 1d 3a d6 d9 a9 3c 64 ac 93 bc
       0.010531731 0.00060180575 0.020733755 -0.018026538
000220 10 94 e0 bb ff 83 34 3d a6 ae b7 3c 90 68 d0 bb
       -0.006853588 0.044071194 0.022422146 -0.006360121
000230 38 c1 07 bc 3d 58 a1 bc dd a5 32 3d 40 f9 93 bb
       -0.008285813 -0.019695396 0.04361521 -0.004515797
000240 50 5b 84 3b 52 62 1d bd e5 33 25 3d d0 71 98 bc
       0.0040392056 -0.038423844 0.040332694 -0.018608958
000250 bf ad 07 3d 5d c3 38 bd 10 92 ed bc 14 94 2e 3c
       0.03312468 -0.045108188 -0.029000312 0.010655422
000260 7f e0 33 bd d7 d6 48 3d c6 04 ff 3c 51 9a 3e 3d
       -0.043915268 0.049033012 0.031130206 0.046533886
000270 68 05 2f 3c 82 e7 3f bd 00 fd 9f 3b f6 53 02 bd
       0.010682441 -0.046851642 0.004882455 -0.031818353
000280 d9 de 05 3d 65 70 24 bd 78 07 1e bc 93 cf 17 bd
       0.032683227 -0.04014625 -0.009645335 -0.037063193
000290 5a 68 de bc e8 91 40 3c 43 bc fb bc 7f 03 20 3d
       -0.027149368 0.011753537 -0.030729419 0.039065834
0002a0 47 91 33 bd 40 ef 65 bc 22 79 3e bd bd 8d 3d 3d
       -0.04383972 -0.014034092 -0.04650224 0.04627775
0002b0 80 cb 61 ba b2 cc e9 3c 48 e7 64 bc 0c ad 8f bc
       -0.0008613393 0.02853999 -0.013971157 -0.01753857
0002c0 3e 5b e2 3c 6a e5 85 3c 80 87 80 3b 30 b9 31 bd
       0.027631398 0.016344745 0.003922403 -0.0433895
0002d0 40 92 bb ba 93 44 c8 bc 5f 72 2b 3d 82 b5 be 3c
       -0.0014310554 -0.024446761 0.04185712 0.023279909
0002e0 b8 4b 06 3c a2 9b 43 bd 6b 58 45 3d f0 01 b8 3b
       0.008196764 -0.047755845 0.048180025 0.0056154653
0002f0 c6 30 24 bd 98 a2 d8 bb ed 21 08 3d d8 28 a0 3b
       -0.040085576 -0.0066111796 0.03323548 0.0048876815
000300 67 28 f0 bc 93 78 be bc 59 c2 49 3d b8 e1 27 bc
       -0.02931614 -0.023250854 0.04925761 -0.010246687
000310 f0 54 e2 3b 90 8f 38 bd 00 2b fc 3b 25 0a 0d 3d
       0.006907098 -0.045058787 0.0076955557 0.034433503
000320 82 eb b4 3c 5f dd 34 3d 74 d0 64 3c 19 e4 23 3d
       0.022084955 0.04415643 0.013965715 0.040012453
000330 b0 e1 de bc 00 eb 8d bb 00 90 f3 ba f2 f4 1d bd
       -0.027207226 -0.0043309927 -0.0018582344 -0.038563676
000340 98 db 6b bc 68 60 09 bd 10 e0 ee 3b c0 9d ec bc
       -0.014395617 -0.033539206 0.007289894 -0.028883815
000350 b0 40 a4 3b aa 7f fa bc af 99 1a 3d ae 74 f6 3c
       0.005012594 -0.030578453 0.03774422 0.030084934
000360 51 c4 16 3d 92 ca da 3c ed 44 1d bd 0a bb 08 bd
       0.036808316 0.026707921 -0.03839581 -0.0333815
000370 a6 fe b7 3c a3 01 16 bd 49 7f 0a 3d d6 55 ae 3c
       0.022460293 -0.036622655 0.033812795 0.021281164
000380 5b b3 17 bd 0c 1f 7c 3c 02 15 c2 3c 55 4d 00 3d
       -0.03703628 0.0153882615 0.023691658 0.03132375
000390 9a 60 32 bd 68 f7 4a bc 80 94 95 bb 1c f7 97 bc
       -0.043549158 -0.012388088 -0.0045648217 -0.018550448
0003a0 c0 57 ba 3b 5a bc 1a bd 92 60 b4 3c e2 8d d3 3c
       0.00568673 -0.037777282 0.022018705 0.025824491
0003b0 40 da ac 3b 0a c5 bf bc c8 aa 27 3c 00 7d 15 bb
       0.005275041 -0.023409385 0.0102335885 -0.0022810102
0003c0 96 ed 13 bd 7f 09 44 3d 0b 83 41 bd a7 58 15 3d
       -0.03611525 0.04786062 -0.047244113 0.0364615
0003d0 54 b3 63 bc 3f 96 37 3d e1 67 42 3d e4 e2 4f 3c
       -0.013897736 0.04482102 0.047462348 0.012688372
0003e0 54 23 2e bc 15 7a 0b 3d 63 29 17 3d 28 f6 18 bd
       -0.01062854 0.034051973 0.036904704 -0.037344128
0003f0 9d 82 0e bd e1 dd 33 3d 34 eb 1a bc 2f 7e 45 bd
       -0.03479253 0.043912772 -0.009455491 -0.04821604

l2.bias f4 [300]
000000 50 36 e6 bb 11 02 33 3d 27 ed 3b 3d 06 85 03 bd
       -0.0070255175 0.043703143 0.045880463 -0.032109283
000010 e8 37 2b bd 00 99 c5 ba e3 2a 26 3d 42 2a 81 3c
       -0.041801363 -0.0015075505 0.040568244 0.01576722
000020 f0 be da 3b 13 3a a0 bc 40 3d 69 ba 40 82 ec 3a
       0.0066755936 -0.019558942 -0.00088973716 0.0018044189
000030 a8 b2 1c bc 57 b7 e6 bc 39 eb 1c 3d a0 2e b2 3a
       -0.009564079 -0.028163595 0.038310263 0.0013594218
000040 59 9c 45 3d 3a 48 97 3c 44 1f 03 bd 78 2a 33 bd
       0.048244808 0.018467057 -0.03201224 -0.043741673
000050 6e e3 9e 3c e7 a8 a1 bc 8c 52 0b bd 74 67 68 bc
       0.019395556 -0.01973386 -0.03401427 -0.014184821
000060 bd 69 16 bd 1d b6 45 3d 58 4f 52 bc 42 9c 12 bd
       -0.036721934 0.04826938 -0.0128363 -0.03579355
000070 d0 4f 22 3b 8e 4d ee 3c 6c b0 23 bc d2 cc cd 3c
       0.002476681 0.029089715 -0.009990793 0.02512208
000080 f8 d5 2f 3c 10 9d b7 3b aa b1 8a bc 4a 3e 92 3c
       0.0107321665 0.00560344 -0.01693042 0.017851967
000090 51 13 02 3d 90 02 df 3b c0 b1 c9 ba 9e ca f1 3c
       0.031756703 0.0068057254 -0.0015388057 0.02951556
0000a0 1a 59 3c bd c0 2a a7 bb 00 ed d3 bc 3d 35 d3 bc
       -0.04598341 -0.0051015317 -0.025869846 -0.025782222
0000b0 bd c8 fc bc 29 4c 29 3d a9 38 15 3d 76 37 b3 3c
       -0.030857438 0.041332398 0.03643099 0.021877032
0000c0 48 40 3c 3c 22 02 d7 3c 6f 0d 4c 3d d8 0a 16 bd
       0.011489935 0.026246134 0.0498175 -0.036631435
0000d0 87 c9 06 3d e0 71 87 bc f1 0d 20 3d 00 ef 8c 3b
       0.032907035 -0.016533792 0.039075796 0.004300952
0000e0 54 e7 43 3c 18 39 dd 3b b2 23 fb 3c 03 2b e7 bc
       0.011957008 0.006751191 0.03065667 -0.028218752
0000f0 0f d6 01 3d 4b 83 3f 3d 74 89 96 bc db 16 2e bd
       0.031698283 0.04675607 -0.01837609 -0.042502265
000100 98 8d 5a bc 4c 95 00 bd 37 e4 d8 bc 34 32 52 3c
       -0.013339423 -0.03139238 -0.026476009 0.012829352
000110 8b b5 1a 3d ec 96 27 bc 62 33 fc 3c 00 4e 58 bb
       0.03777079 -0.010228854 0.03078622 -0.0033005476
000120 3e 93 e7 3c ac 10 12 bc f0 57 ac 3b 12 64 43 bd
       0.028268453 -0.008915108 0.0052595064 -0.047702856
000130 6f c3 35 3d e3 57 2b bd 0d 89 ad bc 6e 4f 0e bd
       0.044375833 -0.041831862 -0.021183515 -0.03474372
000140 39 df 2b 3d eb 55 0d 3d a8 36 f8 3b 04 64 08 bd
       0.04196093 0.034505766 0.007574875 -0.033298507
000150 80 8f f2 bc 40 69 bd 3b e2 94 3c bd b7 73 c4 bc
       -0.029609442 0.005780369 -0.046040423 -0.023980958
000160 a8 cd 83 3b c0 95 6b bc 8a 97 f7 bc e0 29 b8 bc
       0.004022319 -0.014378965 -0.030223627 -0.022480905
000170 80 86 78 bb a2 6c 19 bd 13 2f 24 3d db e9 2c 3d
       -0.0037921965 -0.037457116 0.040083956 0.04221521
000180 53 19 a1 bc 06 f1 07 bd 73 f6 ac bc fe 25 e5 3c
       -0.019665396 -0.033188842 -0.02111361 0.027972218
000190 40 52 a1 3a 60 eb 03 3b e2 3f 30 bd 45 83 23 3d
       0.0012307838 0.0020129308 -0.043029673 0.03992011
0001a0 14 e3 14 3c 28 db 1d 3c 50 6b 0c bb 00 b3 f8 bb
       0.009087343 0.00963477 -0.0021426268 -0.007589698
0001b0 28 ea 8d 3b f9 c9 3b 3d f4 be 53 3c bb fc 26 bd
       0.004330892 0.045846913 0.012923945 -0.040768366
0001c0 a8 4f 47 bd 80 32 0f ba 3b 56 44 3d 3b 0c 11 3d
       -0.04865995 -0.0005462542 0.0479338 0.035412055
0001d0 cf 82 1e 3d 28 02 1e bc 1a bc 96 bc da 6f 46 bd
       0.038698968 -0.009644069 -0.01840024 -0.048446514
0001e0 c3 29 31 3d 5d 2d 44 bd 58 6c 0a bd b8 b0 23 bc
       0.043252718 -0.047894824 -0.03379473 -0.0099908635
0001f0 5a df c5 bc fc 02 77 3c cc 59 31 bc 50 d5 ff 3b
       -0.024154354 0.015076395 -0.010824632 0.0078074113
000200 e7 1a 2b 3d b5 f7 0f 3d b6 95 b0 3c 90 fc 38 bd
       0.041773703 0.03514834 0.021555763 -0.045162737
000210 35 c8 4c bd 2c 08 0a 3c e7 bf cf bc e5 84 36 bd
       -0.04999562 0.0084248 -0.02536006 -0.04456033
000220 f2 9a c1 3c 63 08 1e 3d 28 50 8c 3b 44 77 8f bc
       0.023633454 0.038582217 0.0042820163 -0.017512925
000230 f0 25 45 bd 92 a8 13 bd 4c 16 5d bc b1 4f 4c 3d
       -0.048131883 -0.036049433 -0.0134940855 0.049880687
000240 4c b9 43 bc dd cc 48 3d 40 14 4c bd 56 e8 8d bc
       -0.011946034 0.049023498 -0.049824 -0.0173227
000250 3a 3c e5 3c 0a a7 d4 3c 52 10 fb 3c 50 a1 c5 bc
       0.02798282 0.025958557 0.03064743 -0.024124771
000260 b7 98 02 3d 63 32 17 3d 93 fa c9 bc 92 ad 03 bd
       0.03188392 0.036913287 -0.024655616 -0.03214795
000270 c5 40 33 3d 50 49 34 3b c2 d6 b4 3c 2f 2d 01 3d
       0.04376294 0.0027509518 0.02207506 0.03153723
000280 a2 f9 d8 3c 6c 6b 75 bc 85 e4 10 bd ec 07 8a bc
       0.026486222 -0.014979225 -0.035374183 -0.01684948
000290 1d 1d 11 bd a7 c2 25 3d 30 fa dd bb 18 02 56 bc
       -0.035428155 0.040468838 -0.0067742094 -0.013062023
0002a0 87 cd 2a 3d 60 70 54 bb 40 2f a0 ba ee de ca 3c
       0.041699912 -0.0032415614 -0.0012221113 0.024764504
0002b0 ea 2b ca bc 5a bd d6 bc b3 da aa bc 58 cd 71 bc
       -0.024679143 -0.026213337 -0.020856237 -0.01475843
0002c0 13 b3 41 bd cc a2 6d 3c 5d 27 3c 3d b2 a4 10 bd
       -0.04728992 0.014504146 0.045935977 -0.035313316
0002d0 60 77 50 bc 94 af 15 3c a3 ef 39 bd 13 fa 1e bd
       -0.012723774 0.009136099 -0.04539455 -0.038812708
0002e0 b4 b0 06 bd 71 d4 3b 3d 17 44 c3 bc 86 16 15 bd
       -0.03288336 0.045856897 -0.023836179 -0.036398433
0002f0 68 70 e3 bb 10 d8 c4 bb e0 2a 63 bb f3 7e d3 bc
       -0.00694089 -0.006007202 -0.0034663007 -0.02581737
000300 28 da 46 bc c5 92 06 bd 48 af 3a bd 92 64 9b 3c
       -0.012136973 -0.032854814 -0.045577317 0.018968854
000310 7d 1a aa bc 05 d0 30 3d ec 59 22 bc 13 21 2c bd
       -0.020764584 0.043167133 -0.009909134 -0.04202373
000320 2b 5e 1b bd d0 8e 20 bd ec 25 4b bc 22 a8 85 3c
       -0.037931602 -0.039198697 -0.012399178 0.016315524
000330 2c 38 69 bc 92 00 95 3c 54 df 4c 3c cf 40 4c bd
       -0.014234584 0.018188749 0.012504417 -0.049866494
000340 a9 b5 43 3d 10 fd b5 bc b2 7b 22 bd ae bf 2a bd
       0.047780667 -0.022215396 -0.039668746 -0.041686706
000350 d8 be 8e 3b 5d 5f ca bc 12 cc 89 3c 3d 8a ae bc
       0.0043562464 -0.024703676 0.016820941 -0.021306152
000360 be b0 84 3c 6f fa 3f 3d 60 0f 9e 3a 19 b6 36 3d
       0.016197558 0.04686969 0.0012059025 0.044607256
000370 f8 24 1a bd 00 4f e7 bb 58 93 0e 3c a3 e5 f1 bc
       -0.037632912 -0.007058978 0.008702122 -0.029528445
000380 3a 0f 35 bd ed 06 42 3d fb bd 10 bd 17 a6 1b 3d
       -0.044203974 0.047369886 -0.03533743 0.038000192
000390 9c 79 91 bc 62 6c b1 3c 1d b9 f4 bc f0 05 e8 bc
       -0.017758183 0.021658126 -0.029873425 -0.028323144
0003a0 46 e2 26 bd 2d 1e fd bc 6d c0 d2 bc 85 ad 37 3d
       -0.040743135 -0.030898178 -0.025726521 0.044843215
0003b0 6b 81 0b 3d 4d b2 13 bd 43 7b 0f bd 16 42 f1 3c
       0.03405897 -0.036058713 -0.03502966 0.029450458
0003c0 2c 85 52 bc 43 b2 db bc 31 d3 3f 3d e0 f3 15 3c
       -0.012849133 -0.0268184 0.046832267 0.009152383
0003d0 fe 4c 03 bd 58 b1 30 bd f3 77 15 3d b4 e8 05 bc
       -0.032055847 -0.04313788 0.036491346 -0.0081731565
0003e0 ed 6f 16 3d d4 86 33 3c 51 cd 47 3d b5 cc 32 bd
       0.036727834 0.0109574385 0.04877979 -0.043652255
0003f0 1a 08 2a bd aa 46 a4 bc 43 98 a8 bc 1a c6 d3 3c
       -0.041511633 -0.020053227 -0.020580417 0.025851298

l3.weight f4 [9, 300]
000000 f4 57 66 3d 8e 6f 1a 3d 70 60 08 bd 20 dd 8e bb
       0.056236222 0.037704043 -0.033295095 -0.0043598562
000010 d4 4a bc bc f0 d2 ee 3b 16 60 22 3d 08 7d ae 3c
       -0.0229849 0.0072883293 0.039642416 0.021299854
000020 e0 a2 c8 bb 5c c5 35 bc 3a 10 5f 3d e8 4c 2e 3c
       -0.006122932 -0.011094417 0.054458834 0.010638453
000030 86 c6 9f bc d2 3c 1e bd 30 96 42 bc c0 a6 d1 3a
       -0.019503843 -0.03863222 -0.011876628 0.001599513
000040 f0 d5 67 3d 4c 1b b7 3c 60 89 80 bb bc dc af bc
       0.05660051 0.022351883 -0.0039226264 -0.021467559
000050 92 30 58 3d 68 9a 23 3d 26 3d 01 bd b0 72 10 3c
       0.052780695 0.039942175 -0.031552456 0.008816406
000060 96 dd 5b bd 5e 90 01 3d 60 c5 d7 3c 50 e5 41 bb
       -0.053678118 0.03163182 0.026339233 -0.0029586144
000070 06 65 82 bc 84 6b 3d 3d 7a af 64 3d 64 59 b7 3c
       -0.015917312 0.046245113 0.05583141 0.022381492
000080 ba 9c 12 bd 01 11 1a bd 50 df f9 3b 40 34 65 bd
       -0.035793997 -0.037613872 0.007625498 -0.055958033
000090 94 cf d0 bc 88 6d 94 bc 9c ed 17 bd 78 56 b1 bc
       -0.025489606 -0.018118635 -0.037091836 -0.021647677
0000a0 78 ad 4b 3c d0 c6 28 bc 5a da 4f 3d 60 4c 1a 3d
       0.012431495 -0.010301307 0.050745346 0.037670493
0000b0 c4 08 fa 3c 78 21 41 3d 27 c3 29 bd 8e bc 2b 3d
       0.030521758 0.04715106 -0.041445877 0.041927867
0000c0 98 33 04 3d 74 25 62 bc d0 7b 5b bb ca 77 17 bd
       0.032275766 -0.013802875 -0.0033490546 -0.036979474
0000d0 2c 0e 87 3c 48 12 42 3c a0 b8 26 3c 7c 05 d6 3c
       0.01648625 0.011845179 0.010175854 0.026125662
0000e0 fc a3 0a 3d ac 15 f7 3c dd 74 2e bd c0 b7 7e 3a
       0.033847794 0.030161701 -0.04259192 0.0009716712
0000f0 76 9b 42 3d 52 c5 2b bd 80 30 28 3d 0e 0e 3b 3d
       0.04751154 -0.041936226 0.04106188 0.0456677
000100 d2 78 be bc 50 71 fa bb db ab 31 bd 9c ff 2d bd
       -0.023250971 -0.0076429024 -0.043376785 -0.042480096
000110 38 81 45 3d f0 e3 15 bc 08 6a 44 3c 3a b0 19 3d
       0.048218936 -0.009148583 0.01198817 0.03752158
000120 76 40 2c bd a2 e8 07 bd da ce 44 bd 90 76 ce 3c
       -0.042053662 -0.03318084 -0.04804883 0.02520302
000130 f0 1e 32 3c 4a 55 6a bd 10 6e 1f 3b 2f e8 4c bd
       0.010871634 -0.057210244 0.0024327077 -0.050026115
000140 a4 ec a6 3c d1 f9 4b bd a2 3a 22 3d 75 f3 f8 bc
       0.02037651 -0.04979879 0.039606698 -0.030389527
000150 56 7a 03 3d ee 4b 33 3d b0 5d eb bc 5c 22 3a 3d
       0.03209909 0.043773584 -0.028731197 0.045442924
000160 30 ed d4 3c b4 10 95 3c f0 77 dd 3c 70 3c 40 3d
       0.025992006 0.018196441 0.02703473 0.046932638
000170 a4 38 4a 3d d8 2f 0a bd 29 57 24 bd 54 f2 e1 bc
       0.049370423 -0.033737034 -0.040122185 -0.027581371
000180 f0 2e 15 3c 7c 9e d6 3c 0d 59 10 bd 52 52 a2 bc
       0.009105429 0.026198618 -0.035241175 -0.019814644
000190 78 fe 74 3c 24 be 50 3d c4 a5 16 bd 90 93 ba 3b
       0.014953248 0.050962582 -0.03677918 0.0056938604
0001a0 24 0b 0d bc c4 08 67 bc a4 61 2f bc cc 41 bc 3c
       -0.008608613 -0.014101211 -0.010704432 0.022980593
0001b0 50 70 f9 3c 78 64 41 bd 32 67 4e bd 38 47 4a 3d
       0.030449063 -0.047214955 -0.050391383 0.049384326
0001c0 ae da 1b bd 56 d0 02 3d 00 34 ea b8 7c 82 1c 3d
       -0.038050346 0.031936966 -0.00011167675 0.038210377
0001d0 c8 1b 3e bd 48 d6 fd bb 40 43 2a 3d f4 d7 71 bc
       -0.046413213 -0.0077464916 0.04156804 -0.01476096
0001e0 44 5c da bc d0 76 ac 3b 28 12 6f bc 7c 48 d8 bc
       -0.026655324 0.005263187 -0.014591731 -0.02640175
0001f0 f8 65 6e bc fc aa a8 bc f0 e8 bb bc be c1 17 bd
       -0.014550678 -0.020589344 -0.022938222 -0.03705
000200 96 c4 90 bc a0 10 43 bd 86 f1 19 bd 3a 88 c3 bc
       -0.017671864 -0.047623277 -0.03758385 -0.023868669
000210 04 38 1a 3d e8 ee 24 3c 58 ed da 3c 48 de 93 3c
       0.037651077 0.010066725 0.026724502 0.018050328
000220 2a 8d 67 3d 68 74 c3 3c 2a 6a 01 bd ec 4d e5 3c
       0.05653111 0.023859218 -0.031595387 0.027991258
000230 a4 70 df 3c b0 01 1e 3c 32 7a 40 3d 70 e3 ed bc
       0.02727539 0.009643957 0.046991535 -0.029039115
000240 1a 00 58 bd 94 56 58 3d 08 dd 41 bc 90 53 c5 3c
       -0.05273447 0.052816942 -0.011832483 0.024087697
000250 7c c0 f0 3c d4 6f 25 3d 60 61 bf 3b 24 a8 0f bd
       0.029388659 0.04038985 0.0058404654 -0.03507246
000260 0c af 98 3c 4c 50 4b 3d dc bd b0 3c 12 f6 b3 bc
       0.018638156 0.049637124 0.021574907 -0.021967921
000270 18 e1 c9 bb d0 5a 19 3d d6 75 22 3d fc 04 81 3c
       -0.0061608665 0.03744012 0.03966316 0.015749447
000280 5e d1 80 bc 78 27 4f bd 58 ea 4b 3c 00 29 03 b9
       -0.015724834 -0.05057475 0.012446009 -0.00012508407
000290 a0 ac 3c bc c0 27 37 bd d7 d9 32 bd b0 f6 90 bc
       -0.011515766 -0.044715643 -0.04366478 -0.017695755
0002a0 58 80 60 3c 00 7f 9c 3b 3c fe a0 3c 40 19 35 bc
       0.013702475 0.004775882 0.019652478 -0.011053383
0002b0 30 d0 22 3d f0 2d 6d bb 28 ab 6a bd 58 1b 69 3d
       0.039749324 -0.003619071 -0.057292134 0.056910843
0002c0 9b 8c 61 bd a8 80 40 bc a8 ba f7 3c 80 4b ce bc
       -0.055065732 -0.011749424 0.030240372 -0.025182486
0002d0 00 07 85 3b 42 76 05 3d 28 5d ea 3c fc 0a 9d 3c
       0.0040596724 0.032583483 0.028608873 0.019170277
0002e0 2c ff 25 bd 80 58 f5 ba 58 8b 2c bd 7c 0b 25 3d
       -0.040526554 -0.0018718392 -0.042125076 0.040294155
0002f0 c2 29 3f 3d d6 b8 32 bd 96 6f 20 3d bc fc af bc
       0.046670683 -0.043633305 0.039168917 -0.021482818
000300 c5 c9 3b bd 36 17 12 bd 5a b3 3b 3d 10 4f 2e bd
       -0.04584672 -0.035666667 0.04582534 -0.04255587
000310 08 bc 26 bd 00 fd 9d 3b 5a b5 89 bc b2 0a 9b bc
       -0.040706664 0.0048214197 -0.016810108 -0.018925998
000320 90 f7 b1 3b 38 8f 0e 3c d0 a1 14 3b 84 03 44 bd
       0.005431123 0.008701138 0.0022679456 -0.047854915
000330 e6 0c 13 3d 5f 96 ea bc 3c ff 36 bc e8 2b 46 3c
       0.035900973 -0.028636156 -0.011169251 0.012095429
000340 34 1b 32 bc 36 1f f8 bc 0e ea 3b 3d 3a c3 21 bd
       -0.010870744 -0.03028832 0.04587751 -0.039492823
000350 70 33 1f bc 86 d2 4b 3d f0 4b 26 bd e0 f8 c0 bb
       -0.0097168535 0.049761318 -0.040599763 -0.005889043
000360 dc 46 85 3c 3f ff 2f bd e0 72 8c 3c c0 ef 3f bb
       0.01626914 -0.04296803 0.01714462 -0.002928719
000370 c8 90 04 3d d0 c4 03 3c a8 ec 3d 3c 50 2e 47 3c
       0.032364637 0.008042529 0.011592068 0.012157038
000380 86 35 01 bd 40 6a dd 3b 70 4d ef 3c 67 43 6c bd
       -0.031545185 0.0067570508 0.02921173 -0.057681467
000390 38 52 0c bd 20 00 3e 3d 65 bd 58 bd bc 7e 5d 3d
       -0.034258097 0.046386838 -0.052914996 0.05407594
0003a0 30 df 7c 3c 90 af fb 3c 5e 82 6a bd f4 5c 0b 3d
       0.015434071 0.030723363 -0.057253234 0.034024194
0003b0 5c f5 c8 bc e0 aa 23 3d 02 93 3d 3d 32 80 12 bd
       -0.024531059 0.03995788 0.046282776 -0.035766788
0003c0 18 56 1c bc d8 1b 1e 3c 10 2a f5 3b 22 c7 15 3d
       -0.009542011 0.009650193 0.007481821 0.03656686
0003d0 0f cf 5c bd 98 dd 5e 3d f6 58 fc bc 6a b7 a2 bc
       -0.053908404 0.054410547 -0.030804139 -0.01986285
0003e0 75 67 6c bd ea 02 63 3d f4 7c 52 3d 54 b3 8a 3c
       -0.05771585 0.0554227 0.051388696 0.016931213
0003f0 5c e9 28 bd 65 57 61 bd 74 ea f5 3c db dc 1e bd
       -0.041238174 -0.055014987 0.030019023 -0.038784843

l3.bias f4 [9]
000000 a8 7b 81 bc 5c 5d a2 3c f4 f4 5c bd 24 95 01 bd
       -0.015806034 0.019819908 -0.053944543 -0.031636372
000010 04 12 01 3d 00 41 af 3b 1e 6d 57 3d 9a 33 bc bc
       0.03151132 0.005348325 0.052594297 -0.022973824
000020 d2 84 34 3d
       0.04407198
